…
      <description>I got ROCm to work on my laptop and guess what that means, benchmarks!
Hardware Form factor: Laptop Model: Asus G513QY CPU: AMD Ryzen 5900HX (83rd percentile on cpu.userbenchmark.com, ~ 10% slower than a desktop 5500) GPU: AMD Radeon 6800m (91st percentile on gpu.userbenchmark.com, ~15% slower than a desktop 3060, 1/5th the power of a desktop 4090) Tensorflow Model Summary Model: &amp;#34;sequential&amp;#34; _________________________________________________________________ Layer (type) Output Shape Param # ================================================================= conv2d (Conv2D) (None, 26, 26, 32) 320 conv2d_1 (Conv2D) (None, 24, 24, 64) 18496 max_pooling2d (MaxPooling2D (None, 12, 12, 64) 0 ) dropout (Dropout) (None, 12, 12, 64) 0 flatten (Flatten) (None, 9216) 0 dense (Dense) (None, 128) 1179776 dense_1 (Dense) (None, 10) 1290 ================================================================= Total params: 1,199,882 Trainable params: 1,199,882 Non-trainable params: 0 _________________________________________________________________ Code can be found here</description>
      <content:encoded><![CDATA[<p>I got ROCm to work on my laptop and guess what that means, benchmarks!</p>
<h2 id="hardware">Hardware</h2>
<ul>
<li>Form factor: Laptop</li>
…
<li>CPU: AMD Ryzen 5900HX (83rd percentile on cpu.userbenchmark.com, ~ 10% slower than a desktop 5500)</li>
<li>GPU: AMD Radeon 6800m
(91st percentile on gpu.userbenchmark.com, ~15% slower than a desktop 3060, 1/5th the power of a desktop 4090)</li>
</ul>
<h2 id="tensorflow">Tensorflow</h2>
<h3 id="model-summary">Model Summary</h3>
<pre tabindex="0"><code>Model: &#34;sequential&#34;
_________________________________________________________________
 Layer (type)                Output Shape              Param #
=================================================================
 conv2d (Conv2D)             (None, 26, 26, 32)        320

 conv2d_1 (Conv2D)           (None, 24, 24, 64)        18496

 max_pooling2d (MaxPooling2D  (None, 12, 12, 64)       0
 )

 dropout (Dropout)           (None, 12, 12, 64)        0

 flatten (Flatten)           (None, 9216)              0

 dense (Dense)               (None, 128)               1179776

 dense_1 (Dense)             (None, 10)                1290

=================================================================
Total params: 1,199,882
Trainable params: 1,199,882
Non-trainable params: 0
_________________________________________________________________
</code></pre><p>Code can be found <a href="https://gist.github.com/berinaniesh/7028945386613c76e80dca02ab060350">here</a></p>
<h3 id="cpu">CPU</h3>
<p><img loading="lazy" src="/cpu_mnist_tf.png" type="" alt="CPU TF"  /></p>
<p>Took 654 seconds (10 minutes, 54 seconds).</p>
<h3 id="gpu">GPU</h3>
<p><img loading="lazy" src="/gpu_mnist_tf.png" type="" alt="GPU TF"  /></p>
<p>Took 63 seconds (1 minute, 3 seconds).</p>
<h2 id="pytorch">Pytorch</h2>
<h3 id="model-summary-1">Model Summary</h3>
<pre tabindex="0"><code>----------------------------------------------------------------
        Layer (type)               Output Shape         Param #
================================================================
            Conv2d-1           [-1, 32, 26, 26]             320
            Conv2d-2           [-1, 64, 24, 24]          18,496
           Dropout-3           [-1, 64, 12, 12]               0
            Linear-4                  [-1, 128]       1,179,776
           Dropout-5                  [-1, 128]               0
            Linear-6                   [-1, 10]           1,290
               Net-7                   [-1, 10]               0
================================================================
Total params: 1,199,882
Trainable params: 1,199,882
Non-trainable params: 0
----------------------------------------------------------------
</code></pre><p>Code can be found <a href="https://github.com/pytorch/examples/blob/main/mnist/main.py">here</a></p>
<h3 id="cpu-1">CPU</h3>
<p><img loading="lazy" src="/cpu_mnist_torch.png" type="" alt="CPU"  /></p>
…
